Setting up MAE with mask ratio 0.75 and patch size 16
Using device cuda
Setting up encoder with patch size 16, pe grid of 60 x 200
Setting up decoder with max lmx sequence length 1536, vocab file lmx_vocab.txt
Loaded pretrained mae state dict from mae_pre_train/pretrained_mae.pth
Setting up ViTOMR model
Model architecture
--------------------
ViTOMR(
  (encoder): OMREncoder(
    (projection): Linear(in_features=256, out_features=768, bias=True)
    (encoder_blocks): TransformerEncoder(
      (layers): ModuleList(
        (0-11): 12 x TransformerEncoderLayer(
          (self_attn): MultiheadAttention(
            (out_proj): NonDynamicallyQuantizableLinear(in_features=768, out_features=768, bias=True)
          )
          (linear1): Linear(in_features=768, out_features=3072, bias=True)
          (dropout): Dropout(p=0.0, inplace=False)
          (linear2): Linear(in_features=3072, out_features=768, bias=True)
          (norm1): LayerNorm((768,), eps=1e-05, elementwise_affine=True)
          (norm2): LayerNorm((768,), eps=1e-05, elementwise_affine=True)
          (dropout1): Dropout(p=0.0, inplace=False)
          (dropout2): Dropout(p=0.0, inplace=False)
        )
      )
      (norm): LayerNorm((768,), eps=1e-06, elementwise_affine=True)
    )
  )
  (decoder): OMRDecoder(
    (vocab_embedding): Embedding(227, 1024, padding_idx=1)
    (decoder_blocks): TransformerDecoder(
      (layers): ModuleList(
        (0-9): 10 x TransformerDecoderLayer(
          (self_attn): MultiheadAttention(
            (out_proj): NonDynamicallyQuantizableLinear(in_features=1024, out_features=1024, bias=True)
          )
          (multihead_attn): MultiheadAttention(
            (out_proj): NonDynamicallyQuantizableLinear(in_features=1024, out_features=1024, bias=True)
          )
          (linear1): Linear(in_features=1024, out_features=4096, bias=True)
          (dropout): Dropout(p=0.15, inplace=False)
          (linear2): Linear(in_features=4096, out_features=1024, bias=True)
          (norm1): LayerNorm((1024,), eps=1e-05, elementwise_affine=True)
          (norm2): LayerNorm((1024,), eps=1e-05, elementwise_affine=True)
          (norm3): LayerNorm((1024,), eps=1e-05, elementwise_affine=True)
          (dropout1): Dropout(p=0.15, inplace=False)
          (dropout2): Dropout(p=0.15, inplace=False)
          (dropout3): Dropout(p=0.15, inplace=False)
        )
      )
      (norm): LayerNorm((1024,), eps=1e-06, elementwise_affine=True)
    )
    (unembed): Linear(in_features=1024, out_features=227, bias=True)
  )
  (transition_head): Sequential(
    (0): Linear(in_features=768, out_features=4096, bias=True)
    (1): GELU(approximate='none')
    (2): Dropout(p=0.1, inplace=False)
    (3): Linear(in_features=4096, out_features=1024, bias=True)
  )
)
Trainable parameters count: 177351907
Setting up DataLoaders with batch size 32, shuffle, 26 workers, ragged collate function, pinned memory
Dataset augmentation probability: 0.3
Setting up AdamW with base learning rate 0.0002, betas (0.9, 0.95), weight decay 0.01
Setting up scheduler with 5 warm-up epochs, 100 total epochs, 1e-06 minimum learning rate, 1770 batches per epoch
…
