Setting up MAE with mask ratio 0.75 and patch size 16
Using device cuda
Setting up encoder with patch size 16, pe grid of 60 x 200, fine-tuning last 12 layers
Setting up decoder with max lmx sequence length 1536, vocab file lmx_vocab.txt
Loaded pretrained mae state dict from mae_pre_train/pretrained_mae.pth
Setting up ViTOMR model
Model architecture
--------------------
ViTOMR(
  (encoder): FineTuneOMREncoder(
    (projection): Linear(in_features=256, out_features=768, bias=True)
    (fine_tune_blocks): TransformerEncoder(
      (layers): ModuleList(
        (0-11): 12 x TransformerEncoderLayer(
          (self_attn): MultiheadAttention(
            (out_proj): NonDynamicallyQuantizableLinear(in_features=768, out_features=768, bias=True)
          )
          (linear1): Linear(in_features=768, out_features=3072, bias=True)
          (dropout): Dropout(p=0.05, inplace=False)
          (linear2): Linear(in_features=3072, out_features=768, bias=True)
          (norm1): LayerNorm((768,), eps=1e-05, elementwise_affine=True)
          (norm2): LayerNorm((768,), eps=1e-05, elementwise_affine=True)
          (dropout1): Dropout(p=0.05, inplace=False)
          (dropout2): Dropout(p=0.05, inplace=False)
        )
      )
      (norm): LayerNorm((768,), eps=1e-06, elementwise_affine=True)
    )
  )
  (decoder): OMRDecoder(
    (vocab_embedding): Embedding(227, 1024, padding_idx=1)
    (decoder_blocks): TransformerDecoder(
      (layers): ModuleList(
        (0-23): 24 x TransformerDecoderLayer(
          (self_attn): MultiheadAttention(
            (out_proj): NonDynamicallyQuantizableLinear(in_features=1024, out_features=1024, bias=True)
          )
          (multihead_attn): MultiheadAttention(
            (out_proj): NonDynamicallyQuantizableLinear(in_features=1024, out_features=1024, bias=True)
          )
          (linear1): Linear(in_features=1024, out_features=4096, bias=True)
          (dropout): Dropout(p=0.1, inplace=False)
          (linear2): Linear(in_features=4096, out_features=1024, bias=True)
          (norm1): LayerNorm((1024,), eps=1e-05, elementwise_affine=True)
          (norm2): LayerNorm((1024,), eps=1e-05, elementwise_affine=True)
          (norm3): LayerNorm((1024,), eps=1e-05, elementwise_affine=True)
          (dropout1): Dropout(p=0.1, inplace=False)
          (dropout2): Dropout(p=0.1, inplace=False)
          (dropout3): Dropout(p=0.1, inplace=False)
        )
      )
      (norm): LayerNorm((1024,), eps=1e-06, elementwise_affine=True)
    )
    (unembed): Linear(in_features=1024, out_features=227, bias=True)
  )
  (transition_head): Sequential(
    (0): Linear(in_features=768, out_features=4096, bias=True)
    (1): GELU(approximate='none')
    (2): Dropout(p=0.05, inplace=False)
    (3): Linear(in_features=4096, out_features=1024, bias=True)
  )
)
Trainable parameters count
--------------------
Encoder: 94469376
Transition head: 7345152
Decoder: 405160163
Total: 506974691
Setting up DataLoaders with batch size 16, shuffle, 26 workers, ragged collate function, pinned memory
Dataset augmentation probability: 0.3
Creating optimizer parameter groups using base lr 0.0001 for transition head and decoder, 1e-05 as encoder fine-tune base lr with 0.9 layer-wise decay factor
…
