Setting up MAE with mask ratio 0.75 and patch size 16
Model architecture
--------------------
MAE(
  (encoder): MAEEncoder(
    (projection): Linear(in_features=256, out_features=768, bias=True)
    (encoder_blocks): TransformerEncoder(
      (layers): ModuleList(
        (0-11): 12 x TransformerEncoderLayer(
          (self_attn): MultiheadAttention(
            (out_proj): NonDynamicallyQuantizableLinear(in_features=768, out_features=768, bias=True)
          )
          (linear1): Linear(in_features=768, out_features=3072, bias=True)
          (dropout): Dropout(p=0.0, inplace=False)
          (linear2): Linear(in_features=3072, out_features=768, bias=True)
          (norm1): LayerNorm((768,), eps=1e-05, elementwise_affine=True)
          (norm2): LayerNorm((768,), eps=1e-05, elementwise_affine=True)
          (dropout1): Dropout(p=0.0, inplace=False)
          (dropout2): Dropout(p=0.0, inplace=False)
        )
      )
      (norm): LayerNorm((768,), eps=1e-06, elementwise_affine=True)
    )
  )
  (decoder): MAEDecoder(
    (decoder_blocks): TransformerEncoder(
      (layers): ModuleList(
        (0-7): 8 x TransformerEncoderLayer(
          (self_attn): MultiheadAttention(
            (out_proj): NonDynamicallyQuantizableLinear(in_features=512, out_features=512, bias=True)
          )
          (linear1): Linear(in_features=512, out_features=3072, bias=True)
          (dropout): Dropout(p=0.0, inplace=False)
          (linear2): Linear(in_features=3072, out_features=512, bias=True)
          (norm1): LayerNorm((512,), eps=1e-05, elementwise_affine=True)
          (norm2): LayerNorm((512,), eps=1e-05, elementwise_affine=True)
          (dropout1): Dropout(p=0.0, inplace=False)
          (dropout2): Dropout(p=0.0, inplace=False)
        )
      )
      (norm): LayerNorm((512,), eps=1e-06, elementwise_affine=True)
    )
  )
  (decoder_embed): Linear(in_features=768, out_features=512, bias=True)
  (decoder_unembed): Linear(in_features=512, out_features=256, bias=True)
)
Trainable parameters count: 134755840
Setting up DataLoaders with batch size 64, shuffle, 24 workers, pre train collate function, pinned memory
Setting up AdamW with base learning rate 0.00015, betas (0.9, 0.95), weight decay 0.05
Setting up scheduler with 50 warm-up epochs, 500 total epochs, 1e-06 minimum learning rate
Created directories mae_pre_train, mae_pre_train/checkpoints, mae_pre_train/stats
…
