Using device cuda
Setting up encoder with patch size 16, pe grid of 60 x 200, fine-tuning last 12 layers
Setting up decoder with max lmx sequence length 1536, vocab file lmx_vocab.txt
Loaded pretrained mae state dict from mae_pre_train/pretrained_mae.pth
Setting up ViTOMR model

Created directories tf_omr_train, tf_omr_train/checkpoints

Model architecture
--------------------------------------------------
ScheduledSamplingViTOMR(
  (encoder): FineTuneOMREncoder(
    (unfold): Unfold(kernel_size=16, dilation=1, padding=0, stride=16)
    (projection): Linear(in_features=256, out_features=768, bias=True)
    (fine_tune_blocks): TransformerEncoder(
      (layers): ModuleList(
        (0-11): 12 x TransformerEncoderLayer(
          (self_attn): MultiheadAttention(
            (out_proj): NonDynamicallyQuantizableLinear(in_features=768, out_features=768, bias=True)
          )
          (linear1): Linear(in_features=768, out_features=3072, bias=True)
          (dropout): Dropout(p=0.05, inplace=False)
          (linear2): Linear(in_features=3072, out_features=768, bias=True)
          (norm1): LayerNorm((768,), eps=1e-05, elementwise_affine=True)
          (norm2): LayerNorm((768,), eps=1e-05, elementwise_affine=True)
          (dropout1): Dropout(p=0.05, inplace=False)
          (dropout2): Dropout(p=0.05, inplace=False)
        )
      )
      (norm): LayerNorm((768,), eps=1e-06, elementwise_affine=True)
    )
  )
  (decoder): OMRDecoder(
    (vocab_embedding): Embedding(227, 1024, padding_idx=1)
    (decoder_blocks): TransformerDecoder(
      (layers): ModuleList(
        (0-11): 12 x TransformerDecoderLayer(
          (self_attn): MultiheadAttention(
            (out_proj): NonDynamicallyQuantizableLinear(in_features=1024, out_features=1024, bias=True)
          )
          (multihead_attn): MultiheadAttention(
            (out_proj): NonDynamicallyQuantizableLinear(in_features=1024, out_features=1024, bias=True)
          )
          (linear1): Linear(in_features=1024, out_features=4096, bias=True)
          (dropout): Dropout(p=0.1, inplace=False)
          (linear2): Linear(in_features=4096, out_features=1024, bias=True)
          (norm1): LayerNorm((1024,), eps=1e-05, elementwise_affine=True)
          (norm2): LayerNorm((1024,), eps=1e-05, elementwise_affine=True)
          (norm3): LayerNorm((1024,), eps=1e-05, elementwise_affine=True)
          (dropout1): Dropout(p=0.1, inplace=False)
          (dropout2): Dropout(p=0.1, inplace=False)
          (dropout3): Dropout(p=0.1, inplace=False)
        )
      )
      (norm): LayerNorm((1024,), eps=1e-06, elementwise_affine=True)
    )
    (unembed): Linear(in_features=1024, out_features=227, bias=True)
  )
  (transition_head): Sequential(
    (0): Linear(in_features=768, out_features=4096, bias=True)
    (1): GELU(approximate='none')
    (2): Dropout(p=0.05, inplace=False)
    (3): Linear(in_features=4096, out_features=1024, bias=True)
  )
)
Trainable parameters count
Encoder: 94469376
Transition head: 7345152
Decoder: 203600099
Total: 305414627

General hyperparameters
--------------------------------------------------
Epochs: 45
Warmup epochs: 3
Checkpoint frequency: 5 epochs
Base lr: 0.0001
Fine tune base lr: 1e-05, layer-wise decay factor of 0.9
Minimum lr: 1e-06
AdamW betas: (0.9, 0.95), weight decay: 0.01
…
